k8s/clusters/cluster-0/manifests/home/wyoming-services/resources/hey_piper.tflite (tflite, 206748 bytes, 9 tensors)

Const_1 f4 [32]
0.0015335506 0.03098087 -0.011006197 -0.019305984 0.017082728 0.005274527 -0.0034568345 0.010233908
-0.01919117 0.0016198567 -0.023746936 0.0008372803 -0.019360816 0.006620091 -0.007858757 -0.014153114
-0.01081466 0.025641587 0.020408439 0.006671281 0.018483618 0.0059195575 -0.008131597 0.016961634
0.025882922 -0.015339581 -0.013201217 0.010316901 -0.022667816 -0.02408118 0.014139937 -0.004359031
00000000: 6b01 c93a 98cb fd3c 5653 34bc 9527 9ebc
00000010: 14f1 8b3c f0d5 ac3b 0f8c 62bb 1fac 273c
00000020: cd36 9dbc 5f51 d43a ef88 c2bc ee7c 5b3a
00000030: 939a 9ebc 59ed d83b 04c2 00bc 76e2 67bc
00000040: f92f 31bc 4e0e d23c 992f a73c c39a da3b
00000050: f56a 973c d9f8 c13b 643a 05bc 20f3 8a3c
00000060: 6c08 d43c de52 7bbc eb49 58bc 3808 293c
00000070: dbb1 b9bc e545 c5bc 32ab 673c 34d6 8ebb

Const_2 f4 [32]
1.0064524 1.0823101 0.9747676 1.0241228 1.0020056 1.0067976 0.99830335 0.9453374
1.0286318 1.0020292 0.9903869 0.98585236 0.97069645 0.9966782 0.9947695 1.0090992
1.022231 0.9963452 0.95752364 0.9924661 1.0983138 0.9932635 1.0543432 1.0083921
0.99148154 0.96600986 1.0032048 0.9904742 1.005403 1.0045472 0.99902374 0.9975335
00000000: 6fd3 803f 2389 8a3f 5f8a 793f 7516 833f
00000010: b841 803f bede 803f cf90 7f3f a201 723f
00000020: 35aa 833f 7e42 803f ff89 7d3f d260 7c3f
00000030: 907f 783f 4d26 7f3f 37a9 7e3f 2a2a 813f
00000040: 77d8 823f 7b10 7f3f 4520 753f 4212 7e3f
00000050: 8c95 8c3f 8446 7e3f b8f4 863f fe12 813f
00000060: bcd1 7d3f 6c4c 773f 0469 803f b88f 7d3f
00000070: 0cb1 803f 0195 803f 05c0 7f3f 5b5e 7f3f

Const_3 f4 [32]
0.036791526 0.014651952 -0.021073457 0.0061273403 0.002870521 0.0074302 0.0012071686 -0.082377575
0.017884063 0.005774295 -0.026779227 0.03628619 0.00021846294 0.014064209 -0.014073945 0.026165694
0.014515902 0.007832307 -0.007885194 -0.003464362 0.12869805 -0.020009367 0.055693284 0.014505501
-0.009650808 0.020708926 0.011693065 -0.015577371 0.0043527437 0.006909161 0.0071890703 0.0068882694
00000000: b6b2 163d be0e 703c 3ea2 acbc dbc7 c83b
00000010: 5a1f 3c3b 0979 f33b db39 9e3a 93b5 a8bd
00000020: 9981 923c 4c36 bd3b 1c60 dbbc d4a0 143d
00000030: 3313 6539 916d 663c 6796 66bc 7059 d63c
00000040: 1bd4 6d3c 1453 003c e730 01bc 590a 63bb
00000050: 6cc9 033e afea a3bc a41e 643d 7ba8 6d3c
00000060: 6c1e 1ebc c4a5 a93c 4594 3f3c 3b38 7fbc
00000070: 76a1 8e3b 3e66 e23b 4b92 eb3b feb6 e13b

Const_5 f4 [32]
0.11930943 -0.10595906 0.13663337 -0.028683016 0.17361285 -0.05731384 -0.14102933 -0.13943174
0.1229508 0.12709808 0.09961912 -0.1708419 -0.14972319 0.11869903 -0.12944704 0.11149743
-0.14722244 -0.03623554 -0.022372246 -0.07196682 0.13305923 0.0966882 -0.101981424 -0.07654912
-0.08808577 0.022559082 -0.09158368 0.07208489 0.1679704 0.14443268 -0.05603139 0.18179862
00000000: 8158 f43d 1001 d9bd 9ee9 0b3e a5f8 eabc
00000010: 91c7 313e ebc1 6abd fe69 10be 32c7 0ebe
00000020: a1cd fb3d 0026 023e 1c05 cc3d 2ef1 2ebe
00000030: 0951 19be 7a18 f33d c48d 04be c458 e43d
00000040: 7bc1 16be b86b 14bd 0046 b7bc 5763 93bd
00000050: ae40 083e 7704 c63d a3db d0bd c9c5 9cbd
00000060: 5066 b4bd d3cd b83c 3990 bbbd 3ea1 933d
00000070: 6f00 2c3e 29e6 133e 2c81 65bd 6b29 3a3e

Const_6 f4 [32]
1.0871603 1.0806605 0.9882573 1.0069119 1.071326 1.2230768 1.3000586 0.99387145
1.2585738 1.0738251 1.009772 1.1157485 0.9928047 1.2731786 0.98874456 1.105581
1.0603617 0.97567564 1.1132393 1.087391 1.0773017 1.3474275 1.0832272 1.1777662
1.1061492 1.0571451 1.2374555 0.9824656 1.2669033 0.9525237 1.244768 0.9841795
00000000: 1228 8b3f 1553 8a3f 6efe 7c3f 7de2 803f
00000010: 3621 893f c88d 9c3f 5268 a63f 5c6e 7e3f
00000020: f218 a13f 1a73 893f 3540 813f d9d0 8e3f
00000030: 7328 7e3f 84f7 a23f 5d1e 7d3f ae83 8d3f
00000040: efb9 873f e1c5 793f a07e 8e3f a12f 8b3f
00000050: 06e5 893f 8178 ac3f 30a7 8a3f 0bc1 963f
00000060: 4c96 8d3f 8850 873f f164 9e3f de82 7b3f
00000070: e329 a23f 98d8 733f 8f54 9f3f 30f3 7b3f

Const_7 f4 [32]
0.06530474 0.050001197 -0.017463813 0.0076201702 0.0774424 0.2378235 0.2656743 -0.0038044094
0.24590525 0.0737484 0.015331336 0.09343591 -0.015322973 0.25709412 -0.026684094 0.0837756
0.04395162 -0.0857143 0.047312025 0.05335559 0.04129049 0.28703794 0.05083225 0.14100417
0.060493268 0.045585807 0.2400427 -0.01062266 0.25066477 -0.046472866 0.24418649 -0.027219336
00000000: 7ebe 853d 0ece 4c3d 4510 8fbc 9fb2 f93b
00000010: 1f9a 9e3d 0188 733e 7606 883e 6653 79bb
00000020: 96ce 7b3e 6709 973d 4930 7b3c 545b bf3d
00000030: 350d 7bbc d7a1 833e 9a98 dabc 8b92 ab3d
00000040: 9d06 343d fb8a afbd 41ca 413d 648b 5a3d
00000050: 3820 293d a3f6 923e 7a35 503d 6663 103e
00000060: cac7 773d 2fb8 3a3d c1cd 753e aa0a 2ebc
00000070: 2257 803e 555a 3ebd 060c 7a3e 16fb debc

MatMul f4 [32, 1536]
0.01248081 0.022380818 0.028327217 0.00968466 0.021926967 -0.01700967 0.014295775 0.014030413
-0.010986454 -0.00961257 -0.029815126 -0.035794195 -0.00067703915 -0.02768354 -0.017672075 0.020109467
0.015146985 -0.003322604 -0.010706344 0.005286572 0.0069176084 -0.0012886514 0.017838426 0.0008140884
0.0015650691 0.0073990026 0.008553392 -0.005554823 -0.01374073 -0.03079609 0.0025003725 0.00080166606
-0.006891038 -0.026148368 -0.02078306 0.008395263 -0.0172717 0.007129532 0.02061027 0.008367242
-0.011835399 -0.026272634 -0.018534137 0.010497666 0.008172649 -0.026882436 -0.009200962 -0.014306628
-0.014141042 0.0145218065 0.018237446 -0.02299617 0.021199178 0.018554442 0.00084475847 0.006457244
0.0123011125 -0.020106455 -0.02340853 -0.012848791 0.017374182 0.020429209 0.005087474 -0.021778677
-0.016504284 0.019514076 0.01601189 -0.0026048822 0.0063070785 0.0043277997 0.022470394 0.010556718
0.02693593 0.0138585055 0.02498359 0.0010933982 -0.0073429924 -0.01127373 0.02844228 0.007098058
0.007893569 0.0139690805 0.015494135 -0.014334427 -0.012682705 0.017543351 -0.003229875 -0.0073483353
-0.00773461 0.017827589 -0.015300561 0.014350499 -0.008474832 0.006880191 -0.002203916 -0.013167768
0.017196517 0.016467772 0.011086628 0.022531355 0.013786315 -0.019570332 -0.013478685 0.003966225
-0.034390252 0.01918744 0.01414971 -0.04528042 0.0021881748 0.005227098 0.005040665 0.0068807383
0.0062278863 -0.012013327 0.028221091 0.014650132 0.0055643115 0.017952388 0.007768436 0.023408901
-0.018435467 0.012440314 -0.014956579 0.014852548 0.010103645 -0.01242235 -0.01836148 -0.0024679897
-0.014043796 0.0006699448 0.007949771 -0.006349348 0.023539461 -0.008008969 0.037475877 -0.014507889
-0.015198211 0.010182672 0.023615021 -0.0005679703 -0.0036123088 -0.021587688 -0.007568072 -0.002388716
0.0033115537 -0.0021255573 0.01669565 0.018783903 -0.0132188955 0.0062953 0.014117621 0.0074440194
-0.01629954 -0.023519963 0.0073343436 -0.00012890043 -0.0051288255 0.005936622 -0.008535923 0.0033000049
-0.02343586 0.020643793 0.011161657 -0.00020648839 -0.011090697 -0.020571407 -0.014313793 0.0022051136
0.030295402 0.011631054 0.013544884 -0.00046655035 0.00077535864 -0.032608658 -0.0016567864 0.00617729
-0.0015432787 0.009572671 0.0005533241 0.009088082 -0.01725821 -0.008420602 -0.005944425 -0.007585803
-0.025017906 0.017051047 0.011084511 0.008088458 -0.019401595 -0.010905887 0.0167035 -0.0136069795
-0.006334704 -0.008100806 0.025054725 7.389045e-05 0.008293461 0.01645415 -0.009194403 -0.013421431
-0.012840964 -0.02051542 -0.0040629776 0.033207387 0.0005542577 0.0065594804 -0.019338297 0.022076763
0.029456316 0.0016438878 0.0004758917 0.010538145 -0.003664052 -0.0015813609 0.018922316 0.00077839027
-0.0011820645 -0.013021509 -0.00582253 0.010237557 0.008604448 0.029064707 0.0114516085 0.0017940156
-0.013133439 -0.011238023 -0.023100456 0.004732448 -0.012553535 -0.005601648 0.027267987 -0.0060313637
-0.0053009596 0.0071718195 -0.013124857 -0.0021364912 -0.004632703 0.018542856 0.013375607 -0.0067349942
0.0022994946 0.029839775 0.015108152 -0.012983996 0.02621675 -0.023283517 0.013529499 0.00309
-0.033941306 -0.016891647 -0.0007591455 -0.02351497 0.033009008 -0.010923556 0.002533426 -0.020402908
00000000: 507c 4c3c fa57 b73c 7b0e e83c 68ac 1e3c
00000010: 2fa0 b33c dd57 8bbc d438 6a3c d1df 653c
00000020: 8700 34bc 0a7e 1dbc da3e f4bc ef9c 12bd
00000030: 547b 31ba 97c8 e2bc 07c5 90bc 9cbc a43c
00000040: 0f2b 783c 0cc0 59bb a969 2fbc fb3a ad3b
00000050: 1bad e23b f7e7 a8ba e421 923c 8c68 553a
00000060: 0123 cd3a 5573 f23b 8723 0c3c 3c05 b6bb
00000070: cc20 61bc 1548 fcbc 4add 233b e626 523a
00000080: 37ce e1bb 1a35 d6bc 3c41 aabc 498c 093c
00000090: 617d 8dbc d99e e93b ded6 a83c c216 093c
000000a0: 43e9 41bc b539 d7bc e7d4 97bc 67fe 2b3c
000000b0: 93e6 053c 8e38 dcbc a2bf 16bc 5966 6abc
000000c0: d4af 67bc dfec 6d3c b266 953c 7762 bcbc
000000d0: e6a9 ad3c 7cff 973c c872 5d3a 4a97 d33b
000000e0: 9b8a 493c 4bb6 a4bc 3fc3 bfbc bc83 52bc
000000f0: 4d54 8e3c 285b a73c d3b4 a63b 3269 b2bc
00000100: fe33 87bc fcdb 9f3c 5e2b 833c acb6 2abb
00000110: 9cab ce3b 37d0 8d3b d513 b83c 16f6 2c3c
00000120: bda8 dc3c c90e 633c 63aa cc3c 5b50 8f3a
00000130: 7c9d f0bb 73b5 38bc c9ff e83c d396 e83b
00000140: 0754 013c 92de 643c 1ddb 7d3c f2da 6abc
00000150: 1fcb 4fbc 13b7 8f3c 4fac 53bb 4eca f0bb
00000160: 9c72 fdbb 2a0b 923c 34af 7abc 5b1e 6b3c
00000170: 06da 0abc 3a73 e13b 936f 10bb 9fbd 57bc
00000180: b6df 8c3c 6ce7 863c b0a4 353c ad93 b83c
00000190: ffdf 613c f651 a0bc b4d5 5cbc 1bf7 813b
000001a0: cbdc 0cbd fa2e 9d3c 2fd4 673c f677 39bd
000001b0: 7b67 0f3b 1348 ab3b 2a2c a53b d177 e13b
000001c0: 4c13 cc3b 8cd3 44bc eb2f e73c 1b07 703c
000001d0: d454 b63b e310 933c 5d8e fe3b 06c4 bf3c
000001e0: fa05 97bc 75d2 4b3c 700c 75bc 1a58 733c
000001f0: c289 253c 1d87 4bbc d16a 96bc ffbd 21bb
00000200: f317 66bc 3c9f 2f3a c23f 023c 310e d0bb
00000210: d4d5 c03c 0d38 03bc 4e80 193d 7fb2 6dbc
00000220: eb01 79bc 39d5 263c 4a74 c13c d7e3 14ba
00000230: 7cbc 6cbb aad8 b0bc 97fd f7bb 018c 1cbb
00000240: a706 593b ef4c 0bbb 51c5 883c b3e0 993c
00000250: 1194 58bc ce48 ce3b 984d 673c f6ec f33b
00000260: 9d86 85bc f0ac c0bc ef54 f03b 7229 07b9
00000270: b50f a8bb ff87 c23b 42da 0bbc e544 583b
00000280: 90fc bfbc 2c1d a93c 62df 363c ce84 58b9
00000290: c1b5 35bc 5e85 a8bc 6684 6abc ab83 103b
000002a0: 102e f83c 2d90 3e3c 5ceb 5d3c 549b f4b9
000002b0: 7041 4b3a a890 05bd 8728 d9ba dd6a ca3b
000002c0: d747 caba b1d6 1c3c f40c 113a 2ee6 143c
000002d0: 1761 8dbc 91f6 09bc 73c9 c2bb 5492 f8bb
000002e0: 5af2 ccbc a3ae 8b3c cf9b 353c 7485 043c
000002f0: 18f0 9ebc 9bae 32bc c7d5 883c cfef 5ebc
00000300: 5993 cfbb 3eb9 04bc 913f cd3c a2f5 9a38
00000310: 4ce1 073c dbca 863c 1fa4 16bc 90e5 5bbc
00000320: e862 52bc f40f a8bc ba22 85bb 7804 083d
00000330: 9b4b 113a e9f0 d63b 596b 9ebc 54da b43c
00000340: 5f4e f13c b977 d73a 1a81 f939 2fa8 2c3c
00000350: 9820 70bb ab45 cfba f902 9b3c e30c 4c3a
00000360: 81ef 9aba 2b58 55bc ecca bebb 6dbb 273c
00000370: acf9 0c3c 1c19 ee3c 879f 3b3c 2d25 eb3a
00000380: a32d 57bc af1f 38bc 2b3d bdbc a712 9b3b
00000390: 58ad 4dbc 078e b7bb 1d61 df3c bfa2 c5bb
000003a0: acb3 adbb 9501 eb3b a409 57bc 6004 0cbb
000003b0: eecd 97bb 30e7 973c 5d25 5b3c 3ab1 dcbb
000003c0: 1eb3 163b 8b72 f43c 2f88 773c d4ba 54bc
000003d0: 82c4 d63c 13bd bebc d5aa 5d3c 9981 4a3b
000003e0: 0a06 0bbd 5a60 8abc 6401 47ba 77a2 c0bc
000003f0: 7434 073d b7f8 32bc d607 263b 0024 a7bc

MatMul_1 f4 [32, 32]
0.17420922 -0.18094423 -0.05365264 -0.07807769 -0.0075333244 0.13245086 0.0012998104 0.017241517
0.04391856 0.030170703 0.13889046 -0.076739475 -0.08021478 0.15319926 0.095383935 -0.06455855
0.0331406 -0.17022155 -0.16118407 -0.1465352 0.045001928 0.016670885 0.12520896 0.076354645
-0.055858888 -0.08310207 0.037288655 0.093570255 0.06031584 0.06492163 0.10249669 0.057972174
-0.101849526 0.03714261 0.04924155 0.16071181 -0.05061848 0.15447941 0.03258499 0.049086332
0.061499882 -0.08554689 -0.04613618 0.030285828 -0.14977367 0.19102193 0.11940346 -0.025986863
-0.07488846 -0.14847408 0.068161584 -0.13775676 0.01711145 0.0073954766 0.11564373 0.012072457
0.10716958 0.11954703 -0.013711145 0.14367916 0.066575795 -0.031715278 0.1696248 -0.059661053
-0.096732795 -0.18208948 0.07457729 -0.021261252 0.13387893 0.08364309 0.078961745 0.043873787
0.012016936 0.13225904 -0.12463642 -0.022003133 -0.14005104 -0.16148178 -0.15286246 -0.015642941
-0.02723416 0.0022843867 -0.07736023 -0.101518504 -0.11312194 0.1250258 -0.18222758 0.12559181
-0.033147234 0.12815014 0.09075528 0.14777721 0.081386596 -0.06701138 0.079406746 -0.1549538
-0.105926126 0.11477323 0.014946589 0.04036972 -0.026541151 0.142152 0.14381422 -0.057947025
0.107650615 -0.04191027 0.13708767 -0.042580616 -0.038459215 -0.047008857 -0.063979775 -0.117839016
-0.14764076 0.005706739 -0.053781554 0.16271952 0.04280003 -0.10391067 0.073999085 0.100220226
0.035106495 -0.07276504 -0.026080241 0.1461462 -0.04220214 0.12304506 0.12107122 -0.10545205
-0.029075919 -0.15671022 -0.012765927 0.15385026 0.12649783 -0.018521326 -0.028966714 0.15344128
0.14178914 -0.058835328 0.15768313 -0.061472446 -0.10309038 -0.047402777 0.10089189 0.11438998
-0.12035389 -0.038245514 -0.12819056 -0.13279076 -0.07314482 0.12929925 -0.0355315 0.015369572
0.039077822 0.13522297 -0.048103277 -0.12720685 0.04495613 0.11221466 0.15648817 -0.11996154
0.09332799 -0.060748763 0.08659034 -0.10768717 0.030588439 -0.07819469 -0.043247577 -0.11265347
-0.04681262 0.057708457 -0.030061342 0.018184071 0.103897154 -0.12491255 -0.18186228 0.05296453
0.1906882 0.0055191494 -0.07810067 -0.15666322 -0.08433536 -0.09726319 -0.016897231 0.19664651
0.14325233 0.16073456 0.007264196 -0.056011286 -0.07952477 0.10882798 -0.1048206 -0.014634043
-0.060424645 0.25765768 -0.0723557 -0.078645974 0.04434738 0.15881185 -0.013503413 -0.15683717
0.1124625 0.0051727598 -0.1294829 -0.010415769 0.15618089 0.1498853 -0.12797792 -0.14129114
0.1024987 0.0769511 -0.102650695 -0.00074721116 -0.14443098 0.08804181 -0.16100101 -0.11262413
0.14520235 -0.052658387 0.11694904 -0.12050523 0.16256545 0.11096171 0.005286592 0.05389033
0.043840654 -0.024712235 0.16292627 -0.09113529 -0.11448546 -0.019034078 0.14103745 -0.08120458
-0.10290376 -0.095370814 0.036510747 -0.12842955 0.07024893 0.038310178 -0.08335623 0.14341895
-0.13993488 0.14084835 0.10147301 -0.001669734 0.054995727 0.08122675 0.09342383 0.028557759
0.08393252 -0.09458153 -0.04782053 0.16271581 0.037437525 -0.13178447 0.16382423 -0.0880405
00000000: e763 323e 7249 39be dfc2 5bbd 32e7 9fbd
00000010: 1bda f6bb 33a1 073e 665e aa3a 153e 8d3c
00000020: f3e3 333d 8d28 f73c 4d39 0e3e 9629 9dbd
00000030: a647 a4bd 44e0 1c3e a758 c33d 4637 84bd
00000040: 70be 073d 8f4e 2ebe 700d 25be 530d 16be
00000050: f153 383d 6191 883c c736 003e d35f 9c3d
00000060: 4acc 64bd 6b31 aabd fdbb 183d c3a1 bf3d
00000070: be0d 773d a2f5 843d c9e9 d13d 3b74 6d3d
00000080: 7c96 d0bd d922 183d 82b1 493d a391 243e
00000090: 5355 4fbd da2f 1e3e d777 053d c00e 493d
000000a0: 4de7 7b3d 3533 afbd 4bf9 3cbd fc19 f83c
000000b0: 455e 19be 419b 433e cd89 f43d 67e2 d4bc
000000c0: 1f5f 99bd 9709 18be 4d98 8b3d 1c10 0dbe
000000d0: 502d 8c3c c155 f23b 9fd6 ec3d 8ecb 453c
000000e0: ba7b db3d 13d5 f43d b6a4 60bc a120 133e
000000f0: e458 883d e1e7 01bd 20b2 2d3e 265f 74bd
00000100: d81b c6bd aa75 3abe fabb 983d 142c aebc
00000110: 8f17 093e 124d ab3d b2b6 a13d 00b5 333d
00000120: afe2 443c ea6e 073e 6141 ffbd ea3f b4bc
00000130: 8a69 0fbe 7b5b 25be fa87 1cbe a025 80bc
00000140: 2c1a dfbc a6b5 153b 0a6f 9ebd efe8 cfbd
00000150: 7aac e7bd c306 003e de99 3abe 249b 003e
00000160: 65c5 07bd ca39 033e e7dd b93d e952 173e
00000170: 04ae a63d 433d 89bd 01a0 a23d 35ac 1ebe
00000180: ccef d8bd 3a0e eb3d 8ae2 743c b85a 253d
00000190: d46c d9bc 4b90 113e 0944 133e dc59 6dbd
000001a0: ed77 dc3d 1aaa 2bbd b660 0c3e 0369 2ebd
000001b0: 6987 1dbd 5c8c 40bd d407 83bd 9555 f1bd
000001c0: 242f 17be 99ff ba3b 0c4a 5cbd f29f 263e
000001d0: 164f 2f3d 1ecf d4bd d58c 973d 4340 cd3d
000001e0: d4cb 0f3d d605 95bd 3ba6 d5bc 59a7 153e
000001f0: 27dc 2cbd 0cff fb3d 30f4 f73d 3ff7 d7bd
00000200: 9f30 eebc a578 20be 2e28 51bc ec8a 1d3e
00000210: a688 013e 09ba 97bc 9a4b edbc b61f 1d3e
00000220: 2c31 113e 50fd 70bd b077 213e 88ca 7bbd
00000230: 0d21 d3bd 6a29 42bd 68a0 ce3d 4b45 ea3d
00000240: 1a7c f6bd 54a7 1cbd 6344 03be 4dfa 07be
00000250: f4cc 95bd 0667 043e 7a89 11bd a8d0 7b3c
00000260: 1110 203d e477 0a3e f107 45bd 8342 02be
00000270: eb23 383d cdd0 e53d 6f3e 203e 65ae f5bd
00000280: bf22 bf3d b2d3 78bd 4756 b13d 178b dcbd
00000290: 9b94 fa3c 8a24 a0bd 5f24 31bd ddb6 e6bd
000002a0: 97be 3fbd b45f 6c3d 3443 f6bc c3f6 943c
000002b0: 08c8 d43d 27d2 ffbd 1b3a 3abe 56f1 583d
000002c0: c443 433e fbd9 b43b 3ef3 9fbd 536c 20be
000002d0: 04b8 acbd ec31 c7bd 106c 8abc b45d 493e
000002e0: bdb0 123e 9a97 243e 7e08 ee3b 176c 65bd
000002f0: e2dd a2bd 34e1 de3d 2fac d6bd a0c3 6fbc
00000300: d57f 77bd b5eb 833e 3a2f 94bd 2411 a1bd
00000310: 99a5 353d 939f 223e 6b3d 5dbc ec99 20be
00000320: bd52 e63d 4180 a93b 2a97 04be e7a6 2abc
00000330: e2ed 1f3e 887b 193e a50c 03be a0ae 10be
00000340: d7ea d13d 8a98 9d3d 873a d2bd 7ee0 43ba
00000350: b7e5 13be 444f b43d 73dd 24be 7ba7 e6bd
00000360: edaf 143e 52b0 57bd fa82 ef3d 72cb f6bd
00000370: 8f77 263e e53f e33d 263b ad3b 1bbc 5c3d
00000380: 4292 333d 5071 cabc 25d6 263e 24a5 babd
00000390: 5a77 eabd 5bed 9bbc 1f6c 103e 964e a6bd
000003a0: 35bf d2bd c651 c3bd 4b8c 153d 0983 03be
000003b0: acde 8f3d 22eb 1c3d acb6 aabd 6bdc 123e
000003c0: 174b 0fbe 8d3a 103e 15d1 cf3d fada daba
000003d0: 3343 613d 365a a63d fe54 bf3d f6f1 e93c
000003e0: d0e4 ab3d f6b3 c1bd 76df 43bd f99e 263e
000003f0: 1758 193d 82f2 06be 8ac1 273e 944e b4bd

MatMul_2 f4 [1, 32]
0.16992626 0.1925574 -0.021255022 0.04929475 0.17026655 -0.36495525 -0.35296187 -0.002290768
-0.37898257 0.2098851 -0.029646339 0.110568516 0.0045350236 -0.33018923 -0.014516784 0.22189705
0.12921959 0.06709445 0.25415897 0.0571069 0.091414794 -0.34939846 0.24306406 0.24902236
0.2098873 0.16586713 -0.37458792 0.00022688802 -0.3454621 0.0021789777 -0.38544184 -0.10829753
00000000: 2601 2e3e c42d 453e 031f aebc 4be9 493d
00000010: 5b5a 2e3e 6adb babe 6bb7 b4be b620 16bb
00000020: 010a c2be 1fec 563e e1dc f2bc bf71 e23d
00000030: 899a 943b 900e a9be ced7 6dbc fb38 633e
00000040: 2452 043e d168 893d 2021 823e ede8 693d
00000050: ae37 bb3d 5be4 b2be c9e5 783e b8ff 7e3e
00000060: b2ec 563e 13d9 293e fdc9 bfbe cae8 6d39
00000070: 69e0 b0be 2ecd 0e3b a258 c5be 18cb ddbd
